.config/polybar/~/chrome-private2/optimization_guide_model_store/20/E6DC4029A1E4B4C1/F0246BC7BA2D5F05/model.tflite (tflite, 64872 bytes, 5 tensors)

arith.constant f4 [1, 64]
000000 e2 ee 61 be 47 91 cd 3d e9 ce 79 3e e9 de 58 be
       -0.22063783 0.10037475 0.24395336 -0.21178783
000010 c9 f2 8e be 5d c2 1d be a7 d4 07 3e 72 24 8d be
       -0.27919605 -0.15406175 0.13264714 -0.27566868
000020 10 8a f8 3d 9c 97 42 3c fe cc 94 3e 5f 1d c6 3d
       0.12135708 0.011876967 0.29062647 0.09673571
000030 7a 25 59 be a1 ca 6f be 1c 19 83 bc 1c 56 4a 3e
       -0.21205702 -0.2341714 -0.016003184 0.1975941
000040 ea 04 bc 3e b4 5d 26 3e e3 80 b4 be 60 a9 4f be
       0.367225 0.16246682 -0.35254583 -0.20279455
000050 d3 a2 6d 3e 51 23 5c be f9 3e 80 3e eb 33 fc 3a
       0.23206644 -0.21497847 0.25048044 0.0019241547
000060 f6 70 3e be cc 10 ad 3e 59 c8 a9 bc b5 f9 14 bc
       -0.18597779 0.33801877 -0.020725416 -0.009092738
000070 53 fc ae 3e 7b 00 89 3e d1 24 c1 bd 79 ea b9 bd
       0.34176883 0.2675818 -0.0943085 -0.09077925
000080 23 ae 03 3e 34 cb 91 be 66 ca 9c bd 17 83 06 3e
       0.12859397 -0.28475344 -0.07655792 0.13135944
000090 37 16 0b 3e 4c 29 71 bd 49 e5 ca 39 5d e0 16 be
       0.13582693 -0.058877274 0.00038699273 -0.14734025
0000a0 d8 c1 c5 bd 7c 00 b5 3d 86 af 81 be 32 d8 bb bd
       -0.096561134 0.08837983 -0.25329226 -0.09172095
0000b0 57 9e 3d bd 98 a2 83 3e b2 22 b5 bb 26 a3 09 be
       -0.046293583 0.25709987 -0.0055278176 -0.13441142
0000c0 d2 9a 76 3e 4e 35 18 3c 18 9b 39 be 2e ef 97 3e
       0.24082497 0.009290053 -0.1812557 0.29674667
0000d0 8d e9 8e be b1 ff 61 3e 63 7a ee bd 77 21 a3 bc
       -0.2791256 0.22070195 -0.11644437 -0.019913418
0000e0 9c 4a a7 3e 3f 59 14 3e ee ae a5 3e 33 06 32 be
       0.3267411 0.1448717 0.32360023 -0.17385177
0000f0 66 60 8b be d1 a1 3c be 79 a0 0a bd 07 d5 67 3e
       -0.27221984 -0.18421103 -0.033844445 0.22639857

arith.constant1 f4 [64, 128]
000000 d7 7d ca 3d fd 00 fa bc 37 61 41 3e ce b3 3c 3d
       0.09887283 -0.03051805 0.18884741 0.046069913
000010 0b 53 83 3d 5d 40 b2 bd d1 6d 42 3c 12 cb 10 be
       0.064123236 -0.087036826 0.011867003 -0.14139965
000020 b6 3b 9c bc 30 ff 8d bd b4 7c 2b be 79 8d 90 bc
       -0.019071441 -0.06933439 -0.16746789 -0.017645584
000030 4b 89 7e 3c f1 d0 97 3d 5b 28 cb 3d a7 e4 b8 3d
       0.015535663 0.07412899 0.099198066 0.09027987
000040 97 21 6d bd b1 bd df bd b0 00 93 bd 37 28 c5 bd
       -0.057893362 -0.10924853 -0.071778655 -0.09626811
000050 fd aa b1 bd a9 48 b6 3d fc e5 24 3e 63 a4 8c bd
       -0.086751916 0.089005776 0.16103357 -0.06867292
000060 d5 8f 4b 3d 30 06 b6 3d 9d d0 a9 bc 88 1b 2e bd
       0.049697716 0.08887899 -0.020729357 -0.042506725
000070 f1 67 a0 bd 92 21 da bc da 80 da bd 6d a7 36 be
       -0.07832325 -0.026627336 -0.10669108 -0.17837305
000080 65 da 64 bb 9a a6 48 bd ce 3c 71 bd 53 c5 45 3e
       -0.0034920212 -0.04898701 -0.05889588 0.19313554
000090 62 a1 5d bc 39 6e d9 3d 29 39 e6 bd 11 08 26 3d
       -0.013527246 0.106167264 -0.11241371 0.040535036
0000a0 87 e5 1a be 1a 91 90 bd e7 c8 92 3d 9b 1a 49 bd
       -0.1512662 -0.07058926 0.07167225 -0.04909764
0000b0 f2 f4 0d be 89 f6 e1 bd 2d cb 04 3e 8c 21 2e 3e
       -0.1386297 -0.11033351 0.1296813 0.17004985
0000c0 5b 13 88 bc 1a 46 88 3c 62 21 b1 3c eb 4e 97 bc
       -0.016610792 0.01663499 0.021622363 -0.018470248
0000d0 45 d8 0f be ae ca 19 be f7 4f 46 be 64 26 88 bb
       -0.14047344 -0.15018722 -0.19366442 -0.004154967
0000e0 10 17 e1 bc 79 10 70 3d 38 0b 23 be df 7b 15 be
       -0.027476817 0.05860946 -0.15922248 -0.14598034
0000f0 1e 79 d8 bd 8f 62 89 3d 56 0f a5 bd 57 4c 15 3e
       -0.10569976 0.06708252 -0.08059566 0.14579903
000100 42 5e 6c 3d b6 44 1f bd 74 fc 72 bd 57 89 11 3e
       0.05770708 -0.038883887 -0.05932279 0.14212547
000110 66 e5 61 bd 46 a6 3e 3d 60 60 d2 3d 3a e6 24 be
       -0.055150412 0.04654529 0.10272288 -0.1610345
000120 6e ad 4b bc f1 1a ae 3d 6f d6 b7 bd 0e 1f 26 bd
       -0.012431486 0.085012324 -0.08976447 -0.04055696
000130 5e 4d c4 3d ac 20 39 bd 98 bd bc 3c 65 51 b4 bd
       0.09585069 -0.045197174 0.023039624 -0.08804587
000140 6b ca a7 3d df 1c b7 bd 47 71 2b 3e 25 e5 d7 3d
       0.08192905 -0.089410536 0.1674243 0.10541753
000150 91 86 15 be ef 67 43 3e 8e 3b a8 bd 1e 06 c9 bd
       -0.14602114 0.19082616 -0.08214484 -0.0981562
000160 18 ce 90 3d e6 b4 34 be 1d 56 8a 3d 1f 25 37 3e
       0.07070559 -0.17647132 0.06754706 0.17885254
000170 e5 a6 49 3e f1 d3 91 3d 17 44 7d bd 93 6b a7 bc
       0.19692571 0.07120503 -0.061832514 -0.020437038
000180 e1 f0 89 3d 56 08 01 3e 10 ce bd 3d 8e f4 4b 3e
       0.06735397 0.12600836 0.09267819 0.19917509
000190 1e 32 c9 bd 03 7e df bc 7d 4d e7 bc 32 d4 07 bd
       -0.09824012 -0.027281767 -0.028235191 -0.03316135
0001a0 4d d3 8d bd c6 93 75 bd ef 04 c7 3d 31 c6 31 be
       -0.06925068 -0.05995538 0.09717738 -0.1736076
0001b0 94 25 fa bd 7a bc 10 3e b8 13 1e 3e b3 32 41 3e
       -0.12214199 0.14134398 0.1543721 0.18866996
0001c0 8e 3b bf bd 0a f3 fd 3d fd 04 4c 3e ce f3 f3 3d
       -0.09337531 0.12399872 0.19923778 0.119117364
0001d0 f7 92 2d 3e 14 23 23 be 45 7c cc 3d 1e ad 05 be
       0.16950594 -0.1593135 0.0998464 -0.1305432
0001e0 11 d9 2d bd 57 c1 11 3e ef 5d 27 be fe bc 59 3e
       -0.04244334 0.1423391 -0.16344427 0.21263501
0001f0 29 bf 58 3d bc 74 3a 3c f6 7b ad bd 1a 1f 0d 3e
       0.05291668 0.011380371 -0.08470909 0.13781396
000200 02 64 a7 3d 0c 0d 23 3d 46 a8 97 bd 87 1b 26 be
       0.08173372 0.039807364 -0.074051425 -0.16221438
000210 94 b0 4c bd 38 db f1 bd 83 8a 2e be 6f 55 ef 3c
       -0.049973086 -0.11809391 -0.17045026 0.029215543
000220 3a 76 b5 3c 78 0d b0 bd 5c ce 7f bc 75 a1 93 3b
       0.022151101 -0.08596319 -0.015613165 0.004505331
000230 68 10 cd bc 19 06 2e 3d b0 6e 38 bd e2 23 c2 3d
       -0.025032237 0.042486284 -0.045027435 0.094795
000240 d3 e3 1b 3d 6f 81 b4 3d 17 ea 7a bc 96 c4 11 3e
       0.038059067 0.0881375 -0.0153146 0.14235148
000250 41 88 00 be 2a 52 1a 3b c1 c4 14 be 17 a5 b7 bb
       -0.12551977 0.0023547509 -0.1452818 -0.005604397
000260 f6 5b b4 bd b7 70 01 3b 5a 42 d9 3c 53 c4 32 be
       -0.08806603 0.0019751021 0.026520897 -0.17457704
000270 8d 85 64 3d 2e 41 c5 3b d0 1e 45 3d 4e ed 75 bd
       0.055791426 0.006019733 0.04812509 -0.060040765
000280 3c 09 8e bc 5b 23 8a bd b2 0b 17 3e d9 3a 2f 3e
       -0.017338388 -0.06745025 0.14750555 0.17112292
000290 a6 69 30 3d 1e 80 11 be 4a b6 c9 3d da 69 9c bd
       0.043069504 -0.14209029 0.09849222 -0.07637377
0002a0 12 84 dd bd 4d 67 88 3d 9f f3 22 3c 32 c4 3a 3e
       -0.10816206 0.06660328 0.009945779 0.18238905
0002b0 9a ff 0d 3d b9 5a 26 be 81 b2 e3 bd 89 77 f2 bd
       0.03466759 -0.16245545 -0.11118031 -0.11839206
0002c0 71 61 c5 3d ba dd e2 3d b4 fe 28 bb 11 64 15 be
       0.09637726 0.11077447 -0.002578658 -0.14588954
0002d0 67 a1 56 bc b2 80 04 3e 99 0e 54 3c 9d fc db bc
       -0.013100005 0.12939718 0.0129429335 -0.026853854
0002e0 dd d8 cb bd dd f1 42 3d 42 49 03 be d6 e3 89 bd
       -0.09953473 0.04759394 -0.12820914 -0.067329094
0002f0 35 02 3a bd 55 ce 96 bd 0c 1c ed 3d 98 c9 bf 3d
       -0.04541226 -0.073635735 0.11577615 0.09364623
000300 06 95 2c 3e 7d 8d 0d 3e 65 b1 91 bc a8 23 3a bd
       0.16853723 0.13823505 -0.017784784 -0.04544416
000310 d6 09 a8 bd fc d3 c0 3d 20 9a ed 3d 61 00 65 bd
       -0.08205001 0.09415433 0.11601663 -0.055908564
000320 18 09 9a bd 6b b5 57 3b e3 77 fb 3c e6 c1 56 bd
       -0.07521266 0.003291453 0.030696815 -0.05243101
000330 38 0d c1 bd 09 ca bf bd c4 c4 46 bd 43 de 4d bd
       -0.094263494 -0.09364707 -0.048527494 -0.050260793
000340 4f a3 f6 bc e2 df 42 3a 06 b5 08 3e b2 08 fc bd
       -0.030107168 0.0007433874 0.13350305 -0.12306346
000350 41 56 7a 3d a6 d3 06 be ee df 0b be 6d f2 eb bd
       0.061117414 -0.13166675 -0.13659641 -0.115208484
000360 74 c8 2d be 26 1c ba 3d f0 27 05 be c4 55 12 3d
       -0.16970998 0.090874 -0.13003516 0.035726324
000370 81 e5 bc 3c d6 60 30 be a4 5a 5d 3d 64 2b 37 be
       0.023058655 -0.1722444 0.05404152 -0.17887646
000380 57 3b 14 3e 83 81 80 3d a2 1a 18 3e 7d 84 f2 bd
       0.14475761 0.062747024 0.1485391 -0.118416764
000390 c0 01 a4 bc 5b 9c 27 be 35 4a 67 bd 83 b7 d8 bc
       -0.020020366 -0.16368239 -0.056467254 -0.026454693
0003a0 ab 31 55 3d 74 3c 1a be bd ac a4 bd 19 cb 10 3e
       0.05204932 -0.15062124 -0.0804076 0.14139976
0003b0 ee 88 17 be eb e2 e0 3d 87 fd 75 3d e1 ba 1e be
       -0.14798328 0.10980781 0.060056236 -0.15500976
0003c0 ed 5e cc 3d 1c 08 88 bd 7d b4 24 bd 43 b9 eb bd
       0.09979043 -0.06642172 -0.04021119 -0.11509945
0003d0 13 13 07 3e e1 73 05 be 15 ed c9 bd a5 81 e1 3c
       0.1319087 -0.13032486 -0.09859673 0.02752764
0003e0 9a fd 44 3d 3b a6 26 be cc aa 27 bc 1f 4e 11 bd
       0.048093416 -0.1627435 -0.010233592 -0.035474893
0003f0 4d 42 de bd 41 03 64 bd 06 1c 1a 3e 3d 73 3c 3e
       -0.108524896 -0.055667166 0.15049753 0.18403335

arith.constant2 f4 [128, 12]
000000 2b c1 08 3e 8e 37 14 3e 84 36 0a 3e 94 08 06 3e
       0.13354938 0.14474317 0.13497359 0.1308921
000010 40 f4 84 bd 0c 4b 12 be ea 5d 21 be b3 49 8f 3d
       -0.064918995 -0.1428644 -0.15758482 0.06996479
000020 f7 b8 c2 bd 7b 60 18 be ec 44 30 be 81 9e 97 3d
       -0.095079355 -0.14880554 -0.17213792 0.07403279
000030 84 44 30 bd 79 73 86 bd 0f f1 1f 3e 7e e4 4c be
       -0.04303409 -0.065649934 0.156193 -0.20009038
000040 39 0c 16 be bf 95 41 be ae 67 96 bd 4b e3 52 3d
       -0.146531 -0.1890478 -0.07343994 0.051486295
000050 18 e6 4f be 4c 77 ac bc 24 ab 49 3e 5a a7 c6 bd
       -0.20302618 -0.021052979 0.19694191 -0.096998885
000060 1b 1a 11 3e dc 4b 38 be 23 b2 c1 bd cd d1 25 be
       0.14170115 -0.17997688 -0.09457805 -0.16193314
000070 75 17 e1 bd 84 1f e4 3d 06 9b 1e be b1 25 b0 bd
       -0.10990802 0.11138824 -0.15488824 -0.08600939
000080 53 b9 ae 3d 2b aa f8 bd 9d c2 41 bb 08 30 49 be
       0.085314415 -0.12141832 -0.0029565461 -0.19647229
000090 0d a0 c7 bd 4b bd 13 3b a3 57 cd bd 66 8b 18 3e
       -0.09747324 0.0022543247 -0.10026481 0.14896926
0000a0 3d ef 2c bd 96 65 2f bd c4 19 e8 3d 0c 15 3e 3e
       -0.042220343 -0.04282149 0.113330394 0.18562716
0000b0 8b e3 b3 3d 67 a7 1c bc 32 13 d2 3c 32 29 08 be
       0.08783635 -0.009561396 0.025643919 -0.13296965
0000c0 b9 7f 55 3e 04 ec 1e 3e ad b6 a4 3b d1 28 82 3c
       0.20849504 0.1551972 0.0050266595 0.015888603
0000d0 8b dc bc 3d 4b fd bf 3d da 8b 42 3e b2 f7 ed 3d
       0.09221753 0.09374484 0.18998662 0.1161951
0000e0 83 79 44 be 2f ed e5 3c 91 cc 2c be c6 ea ea bd
       -0.19186978 0.0280672 -0.16874911 -0.11470561
0000f0 5d c0 53 3d c5 c7 bf bc bf ff 6d 3d 46 af 25 be
       0.051697124 -0.023410687 0.058105227 -0.16180143
000100 94 fc ba 3c 9a f5 8c 3d 96 76 c9 3d 16 04 07 3c
       0.022825517 0.06882782 0.098370716 0.00824072
000110 e1 3b 1a 3d 69 1d af 3d 20 fa 45 3e 1e 61 61 bd
       0.03765476 0.085505314 0.19333696 -0.05502426
000120 17 aa bc bd 16 36 98 bd 34 55 22 3d 92 8c 13 be
       -0.092121296 -0.07432191 0.039632037 -0.14409092
000130 7f 02 e2 3d 60 4a 00 3e c1 e2 be bd fd 57 66 3d
       0.11035632 0.12528372 -0.093205936 0.056236256
000140 bb ce 76 be 22 d7 88 bd 84 70 dc 3d 0a 4a 3a be
       -0.24102299 -0.06681658 0.10763648 -0.18192306
000150 92 87 4c bc 2f f3 53 3c 6d a6 3e be 04 7e 31 be
       -0.012483494 0.012936397 -0.18618174 -0.17333227
000160 ad 54 86 bd 23 36 f7 3d 3a f9 1c 3c 93 d1 64 3b
       -0.065591194 0.12070873 0.009580905 0.0034914955
000170 b5 ba 6d be 57 b8 77 3d ca b5 57 bd 73 30 0b be
       -0.23215754 0.060478535 -0.052663602 -0.135927
000180 f5 e2 98 3d 22 30 e2 3d ae 28 a7 bd 2e a8 70 bc
       0.074651636 0.11044337 -0.08162056 -0.014688535
000190 26 e9 71 3d 4a 76 2a 3e cb b9 62 3d 87 56 f2 3d
       0.05906024 0.16646686 0.055352967 0.1183291
0001a0 d2 af fa bd b3 26 ed bd 23 16 23 3d be 88 e7 bd
       -0.12240566 -0.11579647 0.039816033 -0.113053784
0001b0 76 49 68 3e 13 ae 49 be 99 0d 4d be 93 05 1f 3e
       0.22684273 -0.1969531 -0.20024718 0.1552947
0001c0 bd 33 b9 3d 91 62 36 3e b5 6f 2d 3e 0d a7 0a bd
       0.090430714 0.17811038 0.16937144 -0.03385072
0001d0 a3 60 eb bd 6d 45 3e 3e 65 00 53 be 7e 40 cd 3d
       -0.11493041 0.18581171 -0.20605619 0.100220665
0001e0 84 75 b3 bd ea 50 94 bc a1 63 7e bd f1 c0 61 3d
       -0.08762649 -0.01810499 -0.062106732 0.055115644
0001f0 24 f2 a8 3d 36 6f 13 3d bc c9 1c be ce 0c 9c 3d
       0.0824931 0.03599473 -0.1531133 0.0761963
000200 96 5b 3d 3e ed 6a 3f 3d 83 e4 bd 3b 7f 98 93 bc
       0.18491969 0.04673283 0.005795063 -0.018017052
000210 85 bb fb 3c 26 ab cf 3d 11 53 f8 bd 5c 60 9f 3d
       0.030729065 0.10140066 -0.12125219 0.07782051
000220 14 6c b0 3d 57 0e a3 3d ea bd 01 3e ca e2 c5 bc
       0.08614364 0.079617195 0.12670103 -0.024155993
000230 48 6c 00 bd 42 c0 5f be 10 4a a1 3d 63 dd 00 be
       -0.031353265 -0.21850684 0.078754544 -0.12584452
000240 9b 4a 54 3d 23 6c 45 be 6b 6b cf 3c c2 7d 00 be
       0.05182896 -0.19279532 0.025319776 -0.12547973
000250 79 7f 1f be 1f c0 2e be 2d d4 e3 3c 87 6d 21 3d
       -0.1557597 -0.17065476 0.027811134 0.039411094
000260 d1 99 1f 3e a8 60 2b 3e 7a 10 20 3e 4b c2 aa 3d
       0.1558602 0.1673609 0.15631285 0.0833784
000270 ba 0c 4b 3d f0 9c 20 be a1 13 9b 3c 60 ee 21 3e
       0.049572684 -0.15684867 0.018930258 0.15813589
000280 c2 81 a7 bd 02 49 0c be 53 00 0e 3d 03 dd c8 bd
       -0.08179046 -0.13699725 0.034668278 -0.0980778
000290 c4 60 22 3d 05 49 71 bd 03 40 4a bd c1 71 92 3c
       0.039643064 -0.058907527 -0.049377453 0.017876508
0002a0 cb 68 82 be 23 93 c0 3d 29 16 1a 3d b1 98 50 3b
       -0.25470576 0.09403064 0.03761879 0.0031829292
0002b0 ea bc 57 bd c6 be 40 3d 6a 33 2d bd a4 51 29 3e
       -0.052670397 0.047056936 -0.04228536 0.1653505
0002c0 c4 ed 6b 3d 68 0d 57 3d 2c 85 d7 bd c9 8d 81 bd
       0.057599798 0.05250302 -0.105234474 -0.063258715
0002d0 f8 fa dc 3c 7a 61 08 3e 4f cd e0 3c 4c 24 cd bd
       0.02697514 0.13318434 0.027441649 -0.10016689
0002e0 35 0c ab 3d e8 44 37 be 3e fe 0b 3e 39 b1 21 3e
       0.08351938 -0.1789738 0.13671204 0.15790261
0002f0 f5 ff 39 bd 37 8e d4 3c 81 4e d2 bc 0a 20 05 3d
       -0.045410115 0.02594672 -0.0256722 0.032501258
000300 0d 52 88 bd 0b ca 51 be 31 c0 a9 3d 8a 14 c1 3d
       -0.06656275 -0.2048723 0.08288611 0.09427746
000310 c6 7b 3e 3c b9 a2 13 3e 75 d2 97 bd b0 46 33 3d
       0.01162619 0.14417543 -0.07413188 0.043768585
000320 69 d7 1d 3d 27 e5 38 3e a3 bd 61 bd e5 ce fd 3c
       0.03853551 0.18056165 -0.055112492 0.030982444
000330 51 f9 a8 bc 36 8d 39 be ba 70 3d be 5e 03 32 3e
       -0.020626696 -0.18120274 -0.18500033 0.17384097
000340 46 bd fa bb 35 2b d6 bc b3 9a 96 3d 92 37 ce 3c
       -0.0076519577 -0.02614365 0.07353725 0.025172982
000350 3b 03 b5 3d 03 5c b7 bd d9 f2 1e 3e 34 ed 46 be
       0.08838507 -0.08953097 0.15522327 -0.19426423
000360 a6 f1 40 be 08 99 cb 3c 5f f0 8f 3d da f7 80 3d
       -0.18842182 0.024853244 0.07028269 0.06297274
000370 17 c3 3e be d7 f2 b3 3c 97 1e 0e 3d 6e 09 e6 bd
       -0.18629108 0.021966381 0.03469714 -0.11232267
000380 4d 69 4a 3e e5 4b 22 be 76 3c 14 3e 0d 2c bf bc
       0.19766732 -0.15849264 0.14476189 -0.023336435
000390 25 10 53 bd 61 f0 97 bd 0d 8f ee 3d 02 2b 4f 3e
       -0.05152907 -0.074188955 0.116483785 0.2023125
0003a0 59 16 62 be ac 88 64 3d 1a 50 74 3e 7d 8f 79 bd
       -0.22078837 0.055794403 0.23858681 -0.060927857
0003b0 b8 1a 63 3e d7 0c ff 3d c9 c6 6f be 67 76 7f 3c
       0.22178161 0.12453621 -0.23415674 0.015592194
0003c0 50 96 c6 3c 0f 02 11 bd c9 9f f6 3d fa e1 e5 3c
       0.024241596 -0.035402354 0.12042195 0.028061856
0003d0 7d 51 45 3e 54 2b 39 3e f5 f1 e0 bd 5f e1 c9 3d
       0.19269367 0.18082935 -0.1098365 0.09857439
0003e0 52 d9 e3 3d 6c 64 e7 3d 37 dc 28 3e 03 da 73 3b
       0.11125435 0.11298451 0.16490255 0.0037208803
0003f0 db b4 99 bd 16 66 c0 3d f8 f9 12 be 9c 39 1c 3e
       -0.075051986 0.09394471 -0.14353168 0.15256351

arith.constant29 f4 [64]
000000 bc b2 c8 3c 39 08 d2 3c ce c2 48 3d 10 68 ea 3a
       0.02449929 0.025638686 0.049013905 0.0017883796
000010 04 87 fb bc a6 47 ef 3b 68 26 77 bc b6 be 88 3c
       -0.030704029 0.0073022423 -0.01508484 0.0166925
000020 e4 78 21 bc e4 d0 de bb 4e 58 84 3d 86 5c f8 3c
       -0.009855483 -0.006799804 0.06462155 0.030317556
000030 a2 10 39 bd 34 ca 42 bd a5 bd d1 bb 5c 60 29 3d
       -0.045181878 -0.047556117 -0.006400781 0.04135166
000040 0c cb 4d 3d 5e b4 4a 3d 59 f2 6d bd 1c e4 b6 bb
       0.05024247 0.049488418 -0.05809245 -0.005581392
000050 54 89 6f 3b 8f a0 a9 bc a4 e7 71 bb 94 e1 a5 39
       0.003655036 -0.020706443 -0.003691175 0.0003163932
000060 09 bc 80 bd 84 a5 a3 bd 80 72 aa 3c 42 91 fb bb
       -0.06285865 -0.07990554 0.020806551 -0.007677228
000070 43 48 97 3d 0e 63 94 3d ae 7c 01 bd 18 ec 8b bc
       0.0738683 0.07245456 -0.031613044 -0.017080352
000080 65 62 c2 3c c4 d3 5b bd cd ad 28 bc 01 2d 68 bc
       0.023728559 -0.053668752 -0.010295344 -0.014170886
000090 77 56 23 3d 98 5d 8c bc 41 7b 0d bc 5c d3 0c 3c
       0.03987738 -0.017134473 -0.008635343 0.008595314
0000a0 c9 7c 95 bc 42 df d2 bb a0 b4 48 bd 41 33 0f bc
       -0.018247979 -0.006435306 -0.049000382 -0.008740247
0000b0 86 d3 86 3b a6 f1 15 3c 2d 9e 84 bc 5a 81 12 3c
       0.004114571 0.009151852 -0.016188705 0.008941973
0000c0 11 1e 43 3d d1 83 93 bc 1a f7 ab 3c 89 e8 a3 bd
       0.047636095 -0.01800719 0.02099185 -0.08003337
0000d0 2c 4a d7 3b 80 4b 6c bd c5 d1 a5 bc ff 12 b4 3b
       0.0065701213 -0.05768919 -0.020241627 0.0054954286
0000e0 9e 54 56 3d ac 10 bc 3d 19 6f bc 3d 3b e5 88 bd
       0.05232679 0.091828674 0.09200878 -0.06684347
0000f0 16 d7 c9 bd d0 ef 42 3c c1 a8 b7 bb f1 b6 05 3d
       -0.098554775 0.011897996 -0.005604834 0.03264517

arith.constant30 f4 [128]
000000 ae 09 f3 bc 23 fe f0 3d d9 d7 05 bc f2 2f ab bc
       -0.029667702 0.11767223 -0.008169138 -0.020896886
000010 df e9 1b 3b eb c8 4e 3d 3c 09 71 bc 4b 97 60 bd
       0.002379052 0.05048458 -0.014711674 -0.054831784
000020 61 5e 8f 3c af 53 02 3d a1 10 a0 bd 54 65 37 3b
       0.017501058 0.03181809 -0.07815672 0.002798398
000030 c0 69 9b bd 2a d8 61 bd 64 0a b1 bd 07 ad 3b bd
       -0.075885296 -0.05513779 -0.0864456 -0.04581931
000040 34 72 36 3c 2a 6d 7a 3d d8 2e 6b bd b0 76 05 bc
       0.011135627 0.061139263 -0.05741772 -0.008145973
000050 30 ef a2 bd 2e 64 5a be 75 89 77 3d c9 fa bc bd
       -0.07955778 -0.21327278 0.060433824 -0.09227521
000060 d0 a3 9a bd 28 62 a5 3d 02 a8 ac bd c8 c1 bd ba
       -0.07550776 0.080753624 -0.084304824 -0.0014477307
000070 38 a5 87 bc 4b 3c 20 3c a6 dd 3c 3d 72 39 b1 3d
       -0.016558275 0.00978 0.046109818 0.08653535
000080 b5 39 f9 bd 04 33 c5 bc 9c 20 e8 bb 03 9d 8f 3c
       -0.1216921 -0.024072178 -0.0070839655 0.017530924
000090 9c 8c fb bc d6 94 13 bc 0f 69 ce bc cf cb 41 3c
       -0.030706696 -0.009007653 -0.02519658 0.011828377
0000a0 0f d4 0e 3d fe 92 bd bd 32 91 2f 3d cb b6 54 3d
       0.034870204 -0.09256552 0.04286308 0.051932137
0000b0 4f a1 16 be 39 9d 75 3d c1 ba a1 3b c0 8f 44 3d
       -0.14709972 0.059964392 0.004935593 0.047988653
0000c0 df 59 0a bd e8 c0 de 3c 8e 2d 3f 3d 08 4a 97 3c
       -0.033777114 0.027191594 0.046674304 0.018467918
0000d0 a7 dd 81 bc b3 60 84 3d 02 2d 92 3d 03 6f 5e bd
       -0.015852762 0.064637564 0.07137491 -0.054305088
0000e0 31 85 7f 3d aa 05 90 3b 49 78 f2 bb f0 a4 8a bd
       0.06238288 0.0043952065 -0.007399593 -0.067697406
0000f0 4c 47 33 3d dc d6 5e 3b c4 24 64 3c 8a 12 76 3d
       0.043769166 0.0034002578 0.013924781 0.060076274
000100 69 60 1f bc 68 a7 a2 bd db 1b 6e 3c fe fe 2d 3d
       -0.009727576 -0.079420865 0.014533008 0.042479508
000110 a8 60 7a 3d 66 bb 7f 3c cb 65 ff bd ad b6 87 3b
       0.061127335 0.015608644 -0.12470587 0.0041416497
000120 97 d4 55 bd a5 9a 11 3d 7b f0 31 bc 6a 20 27 bd
       -0.052204695 0.03554787 -0.010860558 -0.040802397
000130 71 71 a4 ba 0c 0d 1e 3d 89 4e a8 3b 93 ec 32 be
       -0.0012546015 0.03858666 0.0051363152 -0.17473058
000140 a2 4d 8b bc 77 f6 cc bd 1a 40 1a 3c 10 c9 c3 3d
       -0.017004792 -0.10007947 0.009414697 0.09559834
000150 7f ab 79 bd 6e 08 08 be e2 85 03 3d fe 9d 37 bc
       -0.060954567 -0.13284466 0.032110102 -0.011207102
000160 7f 2c 22 bd 53 67 15 bd 20 16 5d bd 00 00 ef 3b
       -0.039593216 -0.03647549 -0.05397618 0.007293701
000170 01 22 aa bc 6e 6e a0 3c 14 cb 86 bc 28 47 9c bc
       -0.020768167 0.019583907 -0.016454257 -0.019076899
000180 3e 92 3a bd dd 97 03 bd a7 2f ce 3c af f1 df 3c
       -0.045549624 -0.03212725 0.025169207 0.027336923
000190 2b a4 a2 3d 8a 0a be 3d c3 2f 23 bd af 63 fe 3c
       0.07941469 0.09279354 -0.03984047 0.031053392
0001a0 c7 c6 80 bc 90 df 0a bd 28 db 09 3d 2c 9a 1a 3c
       -0.015719784 -0.033904612 0.03365627 0.0094361715
0001b0 b1 40 ca ba 25 e4 47 39 a2 00 bf bd 61 30 a1 bd
       -0.0015430656 0.0001906311 -0.093262926 -0.07870556
0001c0 9c 58 8e 3c 9d f6 48 3d e8 e7 85 bc b5 ce 0f bd
       0.017376237 0.049063314 -0.016345933 -0.03510924
0001d0 80 45 60 3b b4 b5 4c 3c f3 4b c6 bc 59 8b 8b bd
       0.0034221113 0.012494493 -0.024206137 -0.06813688
0001e0 f7 b3 46 3c eb e2 4b bc ad c2 8a bb d5 b0 dc 3b
       0.012127868 -0.012444238 -0.004234633 0.006734947
0001f0 bc ab b2 3c 90 e4 36 3d 43 2f 52 bd 1b 04 1d 3d
       0.021810405 0.044651568 -0.051314604 0.038333993
